…
          "base_uri": "https://localhost:8080/"
        },
        "id": "1DWY42hjIKSu",
        "outputId": "9c90fe6e-8191-4984-ee08-68256bd842cf"
      },
      "outputs": [
        {
          "output_type": "stream",
          "name": "stdout",
          "text": [
            "Model: \"sequential_2\"\n",
            "_________________________________________________________________\n",
            " Layer (type)                Output Shape              Param #   \n",
            "=================================================================\n",
            " conv2d_12 (Conv2D)          (None, 150, 150, 32)      896       \n",
            "                                                                 \n",
            " conv2d_13 (Conv2D)          (None, 150, 150, 32)      9248      \n",
            "                                                                 \n",
            " max_pooling2d_6 (MaxPooling  (None, 75, 75, 32)       0         \n",
            " 2D)                                                             \n",
            "                                                                 \n",
            " conv2d_14 (Conv2D)          (None, 75, 75, 64)        18496     \n",
            "                                                                 \n",
            " conv2d_15 (Conv2D)          (None, 75, 75, 64)        36928     \n",
            "                                                                 \n",
            " max_pooling2d_7 (MaxPooling  (None, 37, 37, 64)       0         \n",
            " 2D)                                                             \n",
            "                                                                 \n",
            " conv2d_16 (Conv2D)          (None, 37, 37, 128)       73856     \n",
            "                                                                 \n",
            " conv2d_17 (Conv2D)          (None, 37, 37, 128)       147584    \n",
            "                                                                 \n",
            " max_pooling2d_8 (MaxPooling  (None, 18, 18, 128)      0         \n",
            " 2D)                                                             \n",
            "                                                                 \n",
            " flatten_2 (Flatten)         (None, 41472)             0         \n",
            "                                                                 \n",
            " dense_4 (Dense)             (None, 128)               5308544   \n",
            "                                                                 \n",
            " dropout_2 (Dropout)         (None, 128)               0         \n",
            "                                                                 \n",
            " dense_5 (Dense)             (None, 5)                 645       \n",
            "                                                                 \n",
            "=================================================================\n",
            "Total params: 5,596,197\n",
            "Trainable params: 5,596,197\n",
            "Non-trainable params: 0\n",
            "_________________________________________________________________\n"
          ]
        }
…
